…
for name,param in model.named_parameters():
    print(name,param.size())

model=MyModule().list
print(model)

# error
# for name,param in model.named_parameters():
#     print(name,param.size())






/home/wangbin/anaconda3/envs/deep_learning/bin/python3.7 /home/wangbin/anaconda3/envs/deep_learning/project/main.py
tensor([[ 0.6614,  0.2669,  0.0617],
        [ 0.6213, -0.4519, -0.1661]])
tensor([[0.6614, 0.2669, 0.0617],
        [0.6213, 0.0000, 0.0000]])
tensor([[0.6614, 0.2669, 0.0617],
        [0.6213, 0.0000, 0.0000]])
tensor([[0., 0., 0.],
        [0., 0., 0.]])
---Sequential---
net1: Sequential(
  (conv): Conv2d(3, 3, kernel_size=(3, 3), stride=(1, 1))
  (batchnorm): BatchNorm2d(3, eps=1e-05, momentum=0.1, affine=True, track_running_stats=True)
  (activation_layer): ReLU()
)
net2: Sequential(
  (0): Conv2d(3, 3, kernel_size=(3, 3), stride=(1, 1))
  (1): BatchNorm2d(3, eps=1e-05, momentum=0.1, affine=True, track_running_stats=True)
  (2): ReLU()
)
net3: Sequential(
  (conv1): Conv2d(3, 3, kernel_size=(3, 3), stride=(1, 1))
  (bn1): BatchNorm2d(3, eps=1e-05, momentum=0.1, affine=True, track_running_stats=True)
  (relu1): ReLU()
)
Conv2d(3, 3, kernel_size=(3, 3), stride=(1, 1)) Conv2d(3, 3, kernel_size=(3, 3), stride=(1, 1)) Conv2d(3, 3, kernel_size=(3, 3), stride=(1, 1))
ReLU() ReLU() ReLU()
tensor([[[[0.0000, 0.0000],
          [1.4725, 0.2500]],

         [[0.0000, 0.0000],
          [0.0000, 1.6477]],

         [[0.1241, 1.4152],
          [0.0000, 0.0000]]]], grad_fn=<ReluBackward0>)
tensor([[ 2.5169,  0.1226, -0.3431]])
model---->
 Linear(in_features=3, out_features=4, bias=True)
input---->
 tensor([[-1.2820, -1.7654,  0.5785,  0.0805]], grad_fn=<AddmmBackward>)
model---->
 ReLU()
input---->
 tensor([[0.0000, 0.0000, 0.5785, 0.0805]], grad_fn=<ReluBackward0>)
model---->
 Linear(in_features=4, out_features=2, bias=True)
input---->
 tensor([[-0.1168, -0.2907]], grad_fn=<AddmmBackward>)
ModuleList(
  (0): Linear(in_features=3, out_features=4, bias=True)
  (1): ReLU()
  (2): Linear(in_features=4, out_features=2, bias=True)
)
ModuleList(
  (0): Linear(in_features=3, out_features=4, bias=True)
  (1): ReLU()
  (2): Linear(in_features=4, out_features=2, bias=True)
)
---MyModule---
MyModule(
  (module_list): ModuleList(
    (0): Conv2d(3, 3, kernel_size=(3, 3), stride=(1, 1))
    (1): ReLU()
  )
)
module_list.0.weight torch.Size([3, 3, 3, 3])
module_list.0.bias torch.Size([3])
[Linear(in_features=3, out_features=4, bias=True), ReLU()]

Process finished with exit code 0








2.3 循环神经网络





